src/shadow_planes_params.npz (npz, 14016 bytes, 2 tensors)

n_hat f8 [237, 3]
00000000: 84a1 c273 6ab9 e93f ab2d e012 1907 e33f
00000010: df83 5456 9b1e 8d3f a867 30e5 4cb9 e93f
00000020: 257e 0118 6607 e33f a1b2 c8e2 7990 8b3f
00000030: 4972 ae7b 8fc1 e93f 3358 2d15 38fd e23f
00000040: 65ef 8463 b95b 783f 4994 271a 875c e83f
00000050: 6a38 8c55 45b0 e43f 14dc 75f5 7f51 a93f
00000060: 4445 46f2 fe93 e83f 3385 dfaa 5172 e43f
00000070: ba17 7812 63ca a53f a988 ef73 6537 ea3f
00000080: 6004 9eb4 2a59 e23f 5395 968a 31ba 793f
00000090: 067d 65e6 f4b3 e93f 667a a9e1 c40f e33f
000000a0: b4ee cd5e 8dce 6dbf ed8c 41bf 6fe9 e93f
000000b0: 6ead 5fee e8c6 e23f 9f6e 31df f4c3 22bf
000000c0: 2d2f 47b1 11a2 e93f a787 6416 d927 e33f
000000d0: 3f04 67e7 42b1 63bf e76b 1f68 7b50 e93f
000000e0: ae81 92ef 4c92 e33f 52f0 a24e dada 873f
000000f0: 14c2 c859 3e37 e93f 8680 1fd0 ffb2 e33f
00000100: 3af4 715f 18b2 843f c831 2c63 28ba e93f
00000110: fdf9 8f15 1707 e33f 0911 98ab 401b 7f3f
00000120: a59f a8f0 1997 e93f c4de 2ca8 9435 e33f
00000130: d9a0 8a1c b727 883f 83d9 1f0d b28d e83f
00000140: 3ace 1392 8378 e43f c9fc 1669 8b0a a73f
00000150: e3a4 3ef5 89a5 e93f 4726 6277 f921 e33f
00000160: 48b4 3718 52d9 8bbf 4f0a 12d4 90b2 e93f
00000170: 86ed ae4c ba11 e33f 4ec5 3021 58e0 503f
00000180: 14a9 c7d7 96b9 e93f d04d b706 f107 e33f
00000190: 4273 426d bbad 7bbf 772a 1d89 fdac e93f
000001a0: 1134 c97b 3318 e33f 43d6 b7ce 4a30 89bf
000001b0: d692 2dbe 57e4 e93f 5da6 b570 5acd e23f
000001c0: 22d1 af60 07a7 82bf 0462 8479 228c e93f
000001d0: dae7 3bed 9944 e33f 0f69 f88f 8595 81bf
000001e0: ccaa 8d99 55be e93f bb8e df80 8001 e33f
000001f0: 8250 cd48 427e 7cbf a84c 50bc a2a3 e93f
00000200: 708a 8a6f f924 e33f fd69 e6f8 a95c 86bf
00000210: 2c05 20dd 2270 e93f dc3f 67c3 6b68 e33f
00000220: 30ba 4040 455d 8fbf 0032 2c89 cbb6 e93f
00000230: fbd4 0c49 510a e33f 5b93 be44 8b27 90bf
00000240: ea00 0e3d 85b6 e93f 09cd 244b 720a e33f
00000250: dac8 aff8 dc41 91bf b5cd 20a4 cf9a e93f
00000260: c1c3 9560 fb2e e33f b6ef 2f98 2efd 93bf
00000270: 3bd0 0fb1 9b67 e93f 61e9 fc86 1c75 e33f
00000280: 1f80 8896 64c3 65bf 838f 1b2f 41af e93f
00000290: 2357 a6c0 2615 e33f 3e37 0dbe 723b 89bf
000002a0: cf75 7124 146d e93f 6fe9 3a2f 7467 e33f
000002b0: 492b 75a0 87e8 9fbf 011c bf45 cbc2 e93f
000002c0: 5d37 16ef 9dfb e23f b56d 212f d17c 74bf
000002d0: 8a7a 3692 02a0 e83f ec65 31cb 476f e43f
000002e0: 3fee 60be d381 763f 5422 218c 0ff8 e83f
000002f0: 6529 00d9 4703 e43f 406d ca09 6097 78bf
00000300: 1c89 862c 3ea6 e93f cf9f 8f78 b81f e33f
00000310: d62c 763e b9db 93bf cbab 2dc7 9c45 e93f
00000320: ad06 7242 f89d e33f 1535 ed6e 59a3 96bf
00000330: 8cb1 266c 67a3 e93f 49a4 8d47 da1f e33f
00000340: 59b8 e31a 94ed 9ebf 1bb6 1f02 b790 e93f
00000350: 5e79 3e03 4839 e33f 6592 7cb3 74ba 9dbf
00000360: 32c1 5ded 69b8 e93f a681 a157 16fe e23f
00000370: c462 81b3 4325 a5bf 8682 a70f a18a e93f
00000380: ff27 027a 3943 e33f b142 c0a7 c96f 98bf
00000390: 81a4 8a84 0765 e93f 37a1 a00e 1f72 e33f
000003a0: 1038 369c 1892 9fbf e8b5 f1dd 912d e93f
000003b0: e2f8 9efc febf e33f a6e4 50e9 9cf3 633f
000003c0: 3fad f430 a4ee e83f 2e5a f605 4a0d e43f
000003d0: d32c 91d5 48b8 91bf 1118 f6d0 b621 e93f
000003e0: 090f f0d9 60cd e33f a9b6 abe9 1094 90bf
000003f0: c79d 7edd a939 e93f 19ca c677 03ac e33f
00000400: 860b 52a5 38d0 9abf 5e41 3bfc dc55 e93f
00000410: ddd0 e293 c487 e33f f094 bea4 5a72 9abf
00000420: c24a 4dd6 a397 e93f eff3 4e35 f42b e33f
00000430: bb60 5cd7 b773 a3bf 50e2 0890 1274 e93f
00000440: 1e3d 3307 c656 e33f 8685 495e 0b58 a7bf
00000450: 837b d7a5 a7a0 e83f 7371 d7a6 a06b e43f
00000460: 1f37 cff0 5f65 96bf f1a4 a7d4 fac2 e93f
00000470: b67e 2412 1fef e23f cb8c bc8d 8db2 a5bf
00000480: ff5e 6a14 a959 e93f fd0e 0be1 a07c e33f
00000490: ee77 2c99 cc6b a4bf bb75 b674 fd85 e93f
000004a0: 55c2 bbd7 d134 e33f a1ec 76b5 25aa aebf
000004b0: d27f cff2 2719 e93f 06de e6c3 79c8 e33f
000004c0: 5ac2 0b2a 8151 aabf 7d3a 238a 7c29 e93f
000004d0: 793d c2de 53a2 e33f 2473 4ae8 5a8b b2bf
000004e0: d09c 30dc 062a e93f f562 36d4 b7af e33f
000004f0: 3595 53b6 09ab acbf 6579 3134 80db e93f
00000500: 68b0 748f aaba e23f 43a0 dd1b 2c2e b1bf
00000510: eea9 239b 2f62 e93f 78fd 1f56 4362 e33f
00000520: a933 870d 1dc5 afbf a620 dd8e b967 e93f
00000530: db5b cd51 1f62 e33f 1bf9 b968 2c15 abbf
00000540: 19e7 a150 3988 e93f 03c6 2a49 233e e33f
00000550: d8d5 d180 1ca2 a5bf 520f de47 6873 e93f
00000560: 3589 b3ee f053 e33f c10d d420 5f3c aabf
00000570: 569f 6974 9f1b e93f aa9b 48e5 d2c5 e33f
00000580: de36 f67f aef4 a9bf f3e9 710c 6156 e93f
00000590: 2025 d18a 4d77 e33f 67e1 8dfd f91e acbf
000005a0: 187f cda3 c48c e93f 7b8d f9bf 0d23 e33f
000005b0: e6fe df4a 23db b1bf 84a0 c143 4568 e93f
000005c0: e737 ab44 595d e33f 199f ae96 44d8 adbf
000005d0: 08e1 ad97 4f8e e93f 51c6 a6cc 232f e33f
000005e0: 9483 bfab 9614 abbf 9286 a26a b781 e93f
000005f0: 43d2 628f fb47 e33f 91f8 fd51 da83 a4bf
00000600: e22f 53bd c873 e93f f9f1 52f9 1e51 e33f
00000610: 07cd 6c08 15e5 abbf 18b6 9f91 4e30 e93f
00000620: 6280 4a6a cb91 e33f e215 7b7d ed7e b4bf
00000630: cb09 df78 8577 e93f d52f 68a8 f045 e33f
00000640: 31f9 1126 2ced afbf 93d7 152f 1b14 e93f
00000650: 252f a51b c3c3 e33f f8f1 3316 72d3 b0bf
00000660: 8002 c8d9 c666 e93f c775 3ed5 9c5c e33f
00000670: 7f1d b307 a38b afbf 819b dab4 3b75 e93f
00000680: e8ef abc0 fd53 e33f c922 6292 435c a8bf
00000690: 9659 4152 9c4b e93f 7b2d 2801 a07d e33f
000006a0: 0a2b 5ac6 6e81 b0bf d370 b95b 9156 e93f
000006b0: 4e10 8fb5 5a72 e33f d2f1 06be a234 afbf
000006c0: 24a6 ec56 f734 e93f 8a11 db22 8192 e33f
000006d0: cd76 7519 8ad3 b2bf 0671 a500 908c e83f
000006e0: c47d 9367 626f e43f e0cf e1a8 cbfb aebf
000006f0: 3e71 9c68 1486 e93f 8862 b315 5339 e33f
00000700: 4343 880b 979d abbf c490 617d 9843 e93f
00000710: 348f 2498 8989 e33f 6aef 17d4 150c b0bf
00000720: 70ac 677b 7a48 e93f 543d 825b 546b e33f
00000730: 9a50 7f06 db22 b6bf 859a cc76 0e53 e93f
00000740: cf43 6607 9671 e33f a876 35e1 d92f b1bf
00000750: 5ab4 602d f1fd e83f 4837 98d0 37df e33f
00000760: e081 5052 28fc b0bf 3269 2e2f 1b2a e93f
00000770: 8a6e f275 cfa5 e33f 69dc c200 0660 b1bf
00000780: 941a 7a05 122e e93f 57e9 7cf8 d999 e33f
00000790: 2ffe 8c85 e237 b3bf dc53 04bc 1f65 e93f
000007a0: efcc 6a38 b355 e33f e046 34fc 0759 b2bf
000007b0: b21f 9a28 1dc0 e83f 7e29 113c 4f39 e43f
000007c0: f43a e5c2 b0d7 a8bf a58e d95c 1642 e93f
000007d0: fd2c 604b c385 e33f bfe2 7d75 28b4 b1bf
000007e0: 6a96 f0ce b92b e93f b578 adaa 9999 e33f
000007f0: 5cd2 9f0a 6d08 b4bf 4357 7d50 9321 e93f
0.803883768171588 0.5946164482751802 0.014218534061514574 0.8038696743344547 0.5946531742919815 0.013459160073659606 0.8048779884007412 0.5934105313888324
0.005946849989694279 0.7612948904831082 0.6465174361089912 0.04944991942732471 0.7680659038470954 0.6389549577108141 0.042559715275316504 0.8192622436875087
0.573384621398997 0.006281083603800158 0.803217363350911 0.595674935098782 -0.003638530839848853 0.8097456679792266 0.5867809921013938 -0.00014316906126309468
0.8010338270628147 0.5986142575604746 -0.0024038607327559187 0.791074469914176 0.6116089514871896 0.011647897267146021 0.7879935983274344 0.6156004967597404
0.010105314648393916 0.8039743363347549 0.5946154996052538 0.007594349497143557 0.7996949863781891 0.6002906117127726 0.011794500883596392 0.7672968155227838
0.6397111752580209 0.04500232370218666 0.8014573850570311 0.5978972751337971 -0.013598100055754028 0.8030475751878131 0.5959140298577246 0.0010300503388516904
0.8039049353076586 0.5947194224522097 -0.0067574807509601115 0.8023669889456205 0.596704236764369 -0.012299141343628089 0.8091238703169334 0.5875675393446717
-0.00910764468969966 0.7983562825566541 0.6021241792179766 -0.0085859713135972 0.8044841765489195 0.5939333455139243 -0.00695634739243556 0.8012250593186723
0.5982634714640209 -0.010918929966284624 0.7949384993409345 0.6064966980429705 -0.015314618132916541 0.8035638503220639 0.5950094630012751 -0.015775848456218138
0.8035303299402845 0.5950252025271833 -0.016852810553196963 0.8001478391292297 0.5994851004053247 -0.01952050022008197 0.7938974817502705 0.608045829437554
-0.0026566471681377514 0.8026433868476349 0.5963319552126659 -0.012320419716754235 0.794565268686421 0.6063786432708137 -0.03116046826225308 0.8050285684811344
0.5932149572051731 -0.005001847386746962 0.7695324760168927 0.6385840386021164 0.005494906543443145 0.7802808510687762 0.6254004705709063 -0.006003737592119862
0.8015433187140704 0.5976221422870313 -0.01939286655173763 0.7897476091578651 0.6130334184419631 -0.022107503314420535 0.8011967766120036 0.5976382634663732
-0.030203165188986556 0.7989153901559719 0.6007423461303849 -0.0290315851736004 0.8037614475306667 0.5935165130177225 -0.041299930250436684 0.7981725030659426
0.6019561179139145 -0.02386393629427869 0.7935826863005248 0.6076808248226716 -0.030830750021372977 0.7868127188536933 0.6171870168689362 0.0024354996371838853
0.7791310268561701 0.6266222111178814 -0.017304552111721726 0.7853654938960536 0.618820596370342 -0.016189827215319728 0.7882890058580693 0.6147477473626309
-0.026184926119195782 0.7917313505550216 0.6103232277296474 -0.025826851182178368 0.7997607408127225 0.5991154709987522 -0.037992234267393475 0.795419007604389
0.6043424740436512 -0.04559360052077026 0.7696111907097108 0.6381381281494626 -0.021871089051095468 0.8050512460150953 0.5916896204325528 -0.04237787585432214
0.7921948813190908 0.6089634318709326 -0.039884942720377 0.7976062087579331 0.6001977170508989 -0.05989187088149462 0.7843208067315521 0.6182221246917272
-0.05140308035141024 0.7863142679214686 0.6135653830296369 -0.07243889018213828 0.7863802242835849 0.615199961163937 -0.05599241591134289 0.8080445308112699
0.5852864076491757 -0.06711078338924019 0.7932355909409219 0.6057449991348411 -0.062050731564887336 0.7939117231662933 0.6057278249453434 -0.05289591577910554
0.7978788924076269 0.601335184959851 -0.04225243637567261 0.7953378108654567 0.6039967214713103 -0.051241848714223 0.7846219323809958 0.617898414439755
-0.05069489776643164 0.7917943232599199 0.6083133422154425 -0.05492383213180823 0.7984336089393507 0.5980290174015147 -0.06975002840044517 0.793978340469963
0.6051451054752278 -0.05829061831837929 0.798621937035052 0.599504375181093 -0.05289145323309366 0.7970845301353668 0.6025369453914852 -0.04006845713500796
0.7953838060143392 0.603652464829394 -0.05448213317722588 0.7871468395439392 0.6115471912380708 -0.08006176293846282 0.7958400116697758 0.6022876061629129
-0.062356357238046896 0.7837043685565156 0.6176467456766416 -0.06572640459120993 0.7937959912815842 0.6050552525445533 -0.06161221951475237 0.7955606968215393
0.6040028346174013 -0.047578918093738994 0.7904798132465654 0.6090850851627886 -0.06447498648246267 0.7918173591129068 0.6077092691489356 -0.060948453613921
0.787715596937407 0.6116338425422765 -0.07354033586076554 0.7671585095045266 0.6385967276545945 -0.06051479755924993 0.7976171534715275 0.6007476257173758
-0.05393669143462045 0.7895014237260729 0.6105392428912411 -0.06268440654815569 0.7900974664929787 0.6068517482071152 -0.08646935375810685 0.7913887329385295
0.6076154846688214 -0.06713639972937335 0.7809987913402765 0.620998294268909 -0.06634761819487478 0.7863899156102774 0.613990526547654 -0.06787145155509368
0.7868738276454956 0.6125306943206777 -0.07507148514286464 0.7935942337231796 0.6042114354990228 -0.07167100817994365 0.7734514039047922 0.6319957898315776
-0.048520587721773284 0.7893173039887712 0.6100784752065064 -0.06915524357271872 0.7865876237671732 0.6125000318095518 -0.07825356969244396 0.7853485652983426

P1 f8 [237, 3]
00000000: c9df 160c 0f84 7ac0 8962 8060 f89e 6840
00000010: e352 18f4 0abf 9840 871f f1a8 806d 7ac0
00000020: 03b9 0036 ce9e 6840 852c ee41 e0be 9840
00000030: 281b 9ebd ab4b 7ac0 14f3 9e22 8e9e 6840
00000040: e57f 8a6b a0be 9840 606e eb41 1e35 7ac0
00000050: 501e 1be2 629e 6840 4a36 e5fe 75be 9840
00000060: 2f3c 08a9 d729 7ac0 72b2 d319 4d9e 6840
00000070: d90a 9dd2 60be 9840 281b 9ebd ab4b 7ac0
00000080: 14f3 9e22 8e9e 6840 e57f 8a6b a0be 9840
00000090: 606e eb41 1e35 7ac0 501e 1be2 629e 6840
000000a0: 4a36 e5fe 75be 9840 606e eb41 1e35 7ac0
000000b0: 501e 1be2 629e 6840 4a36 e5fe 75be 9840
000000c0: 1818 79c3 4a13 7ac0 cdd5 f63a 219e 6840
000000d0: 4227 bb8d 36be 9840 2272 fc56 ecda 79c0
000000e0: 4841 fdd4 b19d 6840 2ac3 a750 cdbd 9840
000000f0: c566 be35 32e6 79c0 6d7c 9c4d c89d 6840
00000100: 174d 7b50 e2bd 9840 f3ae ddee 60c4 79c0
00000110: 9c27 899c 849d 6840 ce55 0c63 a3bd 9840
00000120: 7d4d 5666 1bb9 79c0 217e 5cdd 6d9d 6840
00000130: 06a0 1d75 8ebd 9840 f3ae ddee 60c4 79c0
00000140: 9c27 899c 849d 6840 ce55 0c63 a3bd 9840
00000150: 9367 1dae 7c75 79c0 17f9 648d e39c 6840
00000160: e479 0459 11bd 9840 4259 407f c180 79c0
00000170: 2509 f4d0 fa9c 6840 1714 2d25 26bd 9840
00000180: 6438 c7fb ae53 79c0 fad9 3246 9d9c 6840
00000190: d05f 7f14 d3bc 9840 60a4 8ac1 5a1b 79c0
000001a0: 785e 2298 269c 6840 045c 3eb3 6bbc 9840
000001b0: 60a4 8ac1 5a1b 79c0 785e 2298 269c 6840
000001c0: 045c 3eb3 6bbc 9840 b012 879b d304 79c0
000001d0: b036 709b f69b 6840 aa5b 527b 42bc 9840
000001e0: baae e887 41c1 78c0 a026 7bff 649b 6840
000001f0: 3d23 bb41 c7bb 9840 2693 58b7 b47d 78c0
00000200: 7be9 e819 d19a 6840 b8c2 73a2 4cbb 9840
00000210: c42f 6ca8 3167 78c0 bbc8 6c55 9f9a 6840
00000220: 32d8 9ee2 23bb 9840 b7d2 106a 2d3a 78c0
00000230: 28c1 2625 3b9a 6840 09e7 e88f d2ba 9840
00000240: a7db 4ee7 6b18 78c0 5ef7 9b76 ef99 6840
00000250: 94dc 55b7 95ba 9840 6bd6 1fdb abf6 77c0
00000260: 3284 fb58 a399 6840 e392 1ffd 58ba 9840
00000270: ffb8 5fa6 2ce0 77c0 77b7 1960 7099 6840
00000280: d898 1791 30ba 9840 ffb8 5fa6 2ce0 77c0
00000290: 77b7 1960 7099 6840 d898 1791 30ba 9840
000002a0: d636 0419 6fbe 77c0 37ef d897 2399 6840
000002b0: f434 1906 f4b9 9840 a07a ed1c aec9 77c0
000002c0: 7e06 ad3a 3d99 6840 11d9 6d31 08ba 9840
000002d0: fe47 9cbe 7491 77c0 44d2 78a6 bc98 6840
000002e0: 6a6e 8675 a3b9 9840 fe47 9cbe 7491 77c0
000002f0: 44d2 78a6 bc98 6840 6a6e 8675 a3b9 9840
00000300: aa93 6396 3686 77c0 1312 bfd1 a298 6840
00000310: 25d7 4d58 8fb9 9840 aa93 6396 3686 77c0
00000320: 1312 bfd1 a298 6840 25d7 4d58 8fb9 9840
00000330: 4a44 bc9a f87a 77c0 3903 b7f3 8898 6840
00000340: 6f56 bf3d 7bb9 9840 6bfd c96d 024e 77c0
00000350: 3364 e722 2198 6840 4820 24ed 2ab9 9840
00000360: 2e45 9aa9 4b2c 77c0 ea94 2eef d297 6840
00000370: 6357 2eca eeb8 9840 2e45 9aa9 4b2c 77c0
00000380: ea94 2eef d297 6840 6357 2eca eeb8 9840
00000390: 6fcd 647f 5aff 76c0 084a cb40 6a97 6840
000003a0: 5ab3 0bbb 9eb8 9840 5c24 4002 e3e8 76c0
000003b0: 7f82 12c0 3597 6840 0c6e 1cc0 76b8 9840
000003c0: 84af 00fa 80a5 76c0 d6b0 a3aa 9796 6840
000003d0: 5454 69fd feb7 9840 93e2 9179 ec56 76c0
000003e0: e71b dc4f de95 6840 45fa 4592 73b7 9840
000003f0: d1f4 b885 092a 76c0 eb4d 3609 7495 6840
00000400: 70fd 7307 24b7 9840 dd00 b154 6108 76c0
00000410: c8fb bf30 2495 6840 731a af6c e8b6 9840
00000420: a9ed 9462 a9ae 75c0 6a9c e0d3 4e94 6840
00000430: f751 1daa 49b6 9840 eba8 64ce 9c76 75c0
00000440: 6271 1d41 c993 6840 a233 3e8d e6b5 9840
00000450: 8377 dac2 3260 75c0 93e8 24cc 9393 6840
00000460: 845d 0fed beb5 9840 6ddb 872f 953e 75c0
00000470: 8a85 9f98 4393 6840 1589 4581 83b5 9840
00000480: 35c1 ea8d 9206 75c0 8844 8eeb bd92 6840
00000490: 4952 1d82 20b5 9840 1585 68e6 30b8 74c0
000004a0: 2841 1add 0292 6840 2289 e2f7 95b4 9840
000004b0: 7503 7ba1 0975 74c0 f4f0 3fb9 6291 6840
000004c0: fbce a93e 1fb4 9840 c14e cea4 e931 74c0
000004d0: 0197 e9dc c290 6840 8d6b 3085 a8b3 9840
000004e0: c14e cea4 e931 74c0 0197 e9dc c290 6840
000004f0: 8d6b 3085 a8b3 9840 aac1 ae62 5c10 74c0
00000500: 337f a810 7390 6840 54b7 a526 6db3 9840
00000510: 1d18 d557 47cd 73c0 86ef 3ec9 d38f 6840
00000520: d82c bf62 f6b2 9840 7e01 148f bfab 73c0
00000530: 9220 1653 848f 6840 b30d 2dfc bab2 9840
00000540: 6006 3399 398a 73c0 2ff9 74fe 348f 6840
00000550: d95b c191 7fb2 9840 d8a8 db75 b568 73c0
00000560: 8bd7 9bcd e58e 6840 9b92 ef22 44b2 9840
00000570: 1d26 a61b 083c 73c0 b52d 8472 7c8e 6840
00000580: 568e c2dc f4b1 9840 a0ed e636 881a 73c0
00000590: 6cba 609d 2d8e 6840 176a aa61 b9b1 9840
000005a0: 6ea5 b422 0af9 72c0 0ea7 d7f2 de8d 6840
000005b0: 5529 80e0 7db1 9840 98e3 def5 3304 73c0
000005c0: 9783 d626 f98d 6840 06e7 ecb6 91b1 9840
000005d0: 98e3 def5 3304 73c0 9783 d626 f98d 6840
000005e0: 06e7 ecb6 91b1 9840 98e3 def5 3304 73c0
000005f0: 9783 d626 f98d 6840 06e7 ecb6 91b1 9840
00000600: 98e3 def5 3304 73c0 9783 d626 f98d 6840
00000610: 06e7 ecb6 91b1 9840 e183 8068 13b6 72c0
00000620: caa8 e224 428d 6840 42db 27ca 06b1 9840
00000630: e109 f2d8 64cc 72c0 a73d ea54 768d 6840
00000640: bfbe 627f 2eb1 9840 fcef 80c0 9a94 72c0
00000650: ed9c e504 f48c 6840 c612 2034 cbb0 9840
00000660: fcef 80c0 9a94 72c0 ed9c e504 f48c 6840
00000670: c612 2034 cbb0 9840 81e3 e9ee 7289 72c0
00000680: cfe9 2605 da8c 6840 8c7f bd55 b7b0 9840
00000690: f8cc beac fc67 72c0 5e2a 7727 8c8c 6840
000006a0: 070d 43b5 7bb0 9840 e050 66a7 d55c 72c0
000006b0: 29b9 443e 728c 6840 cb4e 48d3 67b0 9840
000006c0: b1e7 cdc8 613b 72c0 84b7 82a5 248c 6840
000006d0: 6ce2 b227 2cb0 9840 f873 6c11 ca0e 72c0
000006e0: d18c 4f82 bd8b 6840 6478 9c8a dcaf 9840
000006f0: f873 6c11 ca0e 72c0 d18c 4f82 bd8b 6840
00000700: 6478 9c8a dcaf 9840 372b 1e6a eccb 71c0
00000710: 625f bc85 238b 6840 40cc 3500 65af 9840
00000720: afd6 fa19 a4b5 71c0 6d90 0c64 f08a 6840
00000730: 0a5a da1e 3daf 9840 70d6 1bd2 1589 71c0
00000740: f7e4 526e 8a8a 6840 3b24 d14e edae 9840
00000750: 726a 7527 ad67 71c0 c177 1b3b 3e8a 6840
00000760: 9ad2 d666 b1ae 9840 9874 35a7 8a5c 71c0
00000770: c63a 0ae2 248a 6840 93e7 856c 9dae 9840
00000780: d456 5d4f 243b 71c0 551c 4bff d889 6840
00000790: ae03 7d76 61ae 9840 26c2 7d58 6851 71c0
000007a0: 4ce5 b18f 0b8a 6840 ad00 0871 89ae 9840
000007b0: 008a 7e0b e124 71c0 9950 238a a689 6840
000007c0: 6ae4 2577 39ae 9840 21d8 1fd1 5cf8 70c0
000007d0: 75a1 70f2 4189 6840 dc54 d769 e9ad 9840
000007e0: f625 78a4 dbcb 70c0 12b2 38ca dd88 6840
000007f0: ca39 ac48 99ad 9840 6318 dbd2 bbc0 70c0
-424.2536736386797 196.9678194530027 1583.7606967735853 -422.8439111155389 196.96267223492768 1583.71900150439 -420.72942888031184 196.95485049290494
1583.656660236412 -419.31988708462995 196.94957070633473 1583.6152301611314 -418.6151514360126 196.94691172930794 1583.5945534265395 -420.72942888031184
196.95485049290494 1583.656660236412 -419.31988708462995 196.94957070633473 1583.6152301611314 -419.31988708462995 196.94957070633473 1583.6152301611314
-417.20575282385244 196.941556436634 1583.5532750361167 -413.6827001439252 196.92795800651425 1583.4505029881352 -414.3872582852894 196.93070107043914
1583.4710101381113 -412.2736653003223 196.92243792331726 1583.4095575263377 -411.56918939315784 196.91966121735553 1583.3891186360283 -412.2736653003223
196.92243792331726 1583.4095575263377 -407.3429394863717 196.9027773830537 1583.2669411372563 -408.04724049698063 196.90561721480586 1583.2872511905205
-405.2302205831568 196.89419851238182 1583.2061328794698 -401.7096572318751 196.87971121514033 1583.1051759475386 -401.7096572318751 196.87971121514033
1583.1051759475386 -400.3016619945802 196.87385341564868 1583.0649235599944 -396.07849875346767 196.85607885411173 1582.9445866813905 -391.85662016486674
196.83802505007392 1582.8248384559247 -390.4496235109366 196.83194991347213 1582.7850441760497 -387.6360874802735 196.81971986359827 1582.7056270972264
-385.5263436394111 196.810481361982 1582.6462071815376 -383.4169570201545 196.8011898910932 1582.5869030888941 -382.01090085403115 196.7949676992682
1582.547428482727 -382.01090085403115 196.7949676992682 1582.547428482727 -379.90212346693204 196.78559486742026 1582.488304513795 -380.6050080563091
196.78872426790252 1582.5080010570275 -377.091002092813 196.77302859876556 1582.4096280102626 -377.091002092813 196.77302859876556 1582.4096280102626
-376.38832701585 196.7698754054878 1582.3899852907718 -376.38832701585 196.7698754054878 1582.3899852907718 -375.68569444219304 196.76671777481695
1582.370352735186 -372.87559298422156 196.75404496377595 1582.2919202465728 -370.7684722925359 196.74449881647098 1582.2331931343876 -370.7684722925359
196.74449881647098 1582.2331931343876 -367.95959414840667 196.73172034935874 1582.155010397741 -366.5554220681713 196.72531131377397 1582.115967220513
-362.3439884211332 196.7060139844022 1581.9990135629387 -357.43273312555647 196.68338768949545 1581.8628626760485 -354.62732479332504 196.6704145489342
1581.7851846812664 -352.5237624086565 196.66066777703077 1581.7269770965474 -346.9163537805094 196.63462251538596 1581.5719379979398 -343.4132827693963
196.61831718206946 1581.4751481741919 -342.0123928579198 196.6117916794652 1581.4364511872127 -339.9114222819251 196.60200148731775 1581.3784228196066
-336.4107798738581 196.58568361078892 1581.2817463475678 -331.51193848445956 196.5628495705398 1581.1464534183692 -327.31485126545095 196.54330122459908
1581.0305124790746 -323.1195419367687 196.52378697989482 1580.9145705762523 -323.1195419367687 196.52378697989482 1580.9145705762523 -321.0225550486017
196.5140460291819 1580.8565927403588 -316.82991774787826 196.49460279743306 1580.740611064064 -314.73426730932977 196.4849028999493 1580.6826026000606
-312.639062117878 196.47521899076807 1580.6245794498739 -310.5443018513156 196.4655521434582 1580.5665395196181 -307.75197949315935 196.45269132438776
1580.4891233825088 -305.65825548368775 196.44306820766667 1580.4310366275074 -303.56497450413633 196.43346540565148 1580.372926714442 -304.2626856524089
196.43666402718802 1580.3922993675237 -304.2626856524089 196.43666402718802 1580.3922993675237 -304.2626856524089 196.43666402718802 1580.3922993675237
-304.2626856524089 196.43666402718802 1580.3922993675237 -299.37973833276016 196.4143242289486 1580.2566305377554 -300.77462095781635 196.42069478750383
1580.2954078129694 -297.28778124204814 196.40478749128616 1580.1984410296877 -297.28778124204814 196.40478749128616 1580.1984410296877 -296.59055987704056
196.4016137847925 1580.1790380105112 -294.49918818027027 196.3921086623622 1580.1208086468412 -293.80216159789234 196.3889457075359 1580.101391916093
-291.71137314254435 196.37947345286022 1580.0431201887795 -288.9243330227323 196.3668834260666 1579.9653725098115 -288.9243330227323 196.3668834260666
1579.9653725098115 -284.7452183893651 196.34808623115083 1579.8486336141505 -283.35256383880454 196.3418445821184 1579.809688007112 -280.56782732843476
196.32939830961524 1579.7317459753383 -278.4797739588313 196.32009654393008 1579.6732438627282 -277.7838508689979 196.31700231550184 1579.6537342951385
-275.6963647504865 196.30773892087987 1579.5951785596367 -277.08797501682636 196.31391129250767 1579.6342202425396 -274.3049426024372 196.30157954118184
1579.556118576113 -271.5226603740612 196.2893001746958 1579.477942814402 -268.74112364705013 196.27707396577222 1579.3996912870666 -268.0458553846749
